# parameters
nc: 80  # number of classes
depth_multiple: 1.0  # model depth multiple
width_multiple: 1.0  # layer channel multiple

# anchors
anchors:
  - [12,16, 19,36, 40,28]  # P3/8
  - [36,75, 76,55, 72,146]  # P4/16
  - [142,110, 192,243, 459,401]  # P5/32

# yolov7 backbone
backbone:
  # [from, number, module, args]
  [[-1, 1, Conv, [40, 3, 1]],  # 0
  
   [-1, 1, Conv, [80, 3, 2]],  # 1-P1/2      
   [-1, 1, Conv, [80, 3, 1]],
   
   [-1, 1, Conv, [160, 3, 2]],  # 3-P2/4  
  #  [-1, 1, Conv, [64, 1, 1]],
  #  [-2, 1, Conv, [64, 1, 1]],
  #  [-1, 1, Conv, [64, 3, 1]],
  #  [-1, 1, Conv, [64, 3, 1]],
  #  [-1, 1, Conv, [64, 3, 1]],
  #  [-1, 1, Conv, [64, 3, 1]],
  #  [-1, 1, Conv, [64, 3, 1]],
  #  [-1, 1, Conv, [64, 3, 1]],
  #  [[-1, -3, -5, -7, -8], 1, Concat, [1]],
  #  [-1, 1, Conv, [320, 1, 1]],  # 13
   [-1, 1, ELAN, [320, 64, [-1, -3, -5], 8]], #4
   
         
   [-1, 1, MP, []],
   [-1, 1, Conv, [160, 1, 1]],
   [-3, 1, Conv, [160, 1, 1]],
   [-1, 1, Conv, [160, 3, 2]],
   [[-1, -3], 1, Concat, [1]],  # 18-P3/8  
  #  [-1, 1, Conv, [128, 1, 1]],
  #  [-2, 1, Conv, [128, 1, 1]],
  #  [-1, 1, Conv, [128, 3, 1]],
  #  [-1, 1, Conv, [128, 3, 1]],
  #  [-1, 1, Conv, [128, 3, 1]],
  #  [-1, 1, Conv, [128, 3, 1]],
  #  [-1, 1, Conv, [128, 3, 1]],
  #  [-1, 1, Conv, [128, 3, 1]],
  #  [[-1, -3, -5, -7, -8], 1, Concat, [1]],
  #  [-1, 1, Conv, [640, 1, 1]],  # 28
   [-1, 1, ELAN, [640, 128, [-1, -3, -5], 8]], #10
         
   [-1, 1, MP, []],
   [-1, 1, Conv, [320, 1, 1]],
   [-3, 1, Conv, [320, 1, 1]],
   [-1, 1, Conv, [320, 3, 2]],
   [[-1, -3], 1, Concat, [1]],  # 33-P4/16  
  #  [-1, 1, Conv, [256, 1, 1]],
  #  [-2, 1, Conv, [256, 1, 1]],
  #  [-1, 1, Conv, [256, 3, 1]],
  #  [-1, 1, Conv, [256, 3, 1]],
  #  [-1, 1, Conv, [256, 3, 1]],
  #  [-1, 1, Conv, [256, 3, 1]],
  #  [-1, 1, Conv, [256, 3, 1]],
  #  [-1, 1, Conv, [256, 3, 1]],
  #  [[-1, -3, -5, -7, -8], 1, Concat, [1]],
  #  [-1, 1, Conv, [1280, 1, 1]],  # 43
   [-1, 1, ELAN, [1280, 256, [-1, -3, -5], 8]], #16

   [-1, 1, MP, []],
   [-1, 1, Conv, [640, 1, 1]],
   [-3, 1, Conv, [640, 1, 1]],
   [-1, 1, Conv, [640, 3, 2]],
   [[-1, -3], 1, Concat, [1]],  # 48-P5/32  
  #  [-1, 1, Conv, [256, 1, 1]],
  #  [-2, 1, Conv, [256, 1, 1]],
  #  [-1, 1, Conv, [256, 3, 1]],
  #  [-1, 1, Conv, [256, 3, 1]],
  #  [-1, 1, Conv, [256, 3, 1]],
  #  [-1, 1, Conv, [256, 3, 1]],
  #  [-1, 1, Conv, [256, 3, 1]],
  #  [-1, 1, Conv, [256, 3, 1]],
  #  [[-1, -3, -5, -7, -8], 1, Concat, [1]],
  #  [-1, 1, Conv, [1280, 1, 1]],  # 58
   [-1, 1, ELAN, [1280, 256, [-1, -3, -5], 8]], #22
  
  ]

# yolov7 head
head:
  [[-1, 1, SPPCSPC, [640]], # 59 #23
  
   [-1, 1, Conv, [320, 1, 1]],
   [-1, 1, nn.Upsample, [None, 2, 'nearest']],
   [16, 1, Conv, [320, 1, 1]], # route backbone P4 
   [[-1, -2], 1, Concat, [1]],
   
  #  [-1, 1, Conv, [256, 1, 1]],
  #  [-2, 1, Conv, [256, 1, 1]],
  #  [-1, 1, Conv, [256, 3, 1]],
  #  [-1, 1, Conv, [256, 3, 1]],
  #  [-1, 1, Conv, [256, 3, 1]],
  #  [-1, 1, Conv, [256, 3, 1]],
  #  [-1, 1, Conv, [256, 3, 1]],
  #  [-1, 1, Conv, [256, 3, 1]],
  #  [[-1, -3, -5, -7, -8], 1, Concat, [1]],
  #  [-1, 1, Conv, [320, 1, 1]], # 73
   [-1, 1, ELAN, [320, 256, [-1, -3, -5], 8]], #28
   
   [-1, 1, Conv, [160, 1, 1]],
   [-1, 1, nn.Upsample, [None, 2, 'nearest']],
   [10, 1, Conv, [160, 1, 1]], # route backbone P3
   [[-1, -2], 1, Concat, [1]],
   
  #  [-1, 1, Conv, [128, 1, 1]],
  #  [-2, 1, Conv, [128, 1, 1]],
  #  [-1, 1, Conv, [128, 3, 1]],
  #  [-1, 1, Conv, [128, 3, 1]],
  #  [-1, 1, Conv, [128, 3, 1]],
  #  [-1, 1, Conv, [128, 3, 1]],
  #  [-1, 1, Conv, [128, 3, 1]],
  #  [-1, 1, Conv, [128, 3, 1]],
  #  [[-1, -3, -5, -7, -8], 1, Concat, [1]],
  #  [-1, 1, Conv, [160, 1, 1]], # 87
   [-1, 1, ELAN, [160, 128, [-1, -3, -5], 8]], #33

      
   [-1, 1, MP, []],
   [-1, 1, Conv, [160, 1, 1]],
   [-3, 1, Conv, [160, 1, 1]],
   [-1, 1, Conv, [160, 3, 2]],
   [[-1, -3, 28], 1, Concat, [1]],
   
  #  [-1, 1, Conv, [256, 1, 1]],
  #  [-2, 1, Conv, [256, 1, 1]],
  #  [-1, 1, Conv, [256, 3, 1]],
  #  [-1, 1, Conv, [256, 3, 1]],
  #  [-1, 1, Conv, [256, 3, 1]],
  #  [-1, 1, Conv, [256, 3, 1]],
  #  [-1, 1, Conv, [256, 3, 1]],
  #  [-1, 1, Conv, [256, 3, 1]],
  #  [[-1, -3, -5, -7, -8], 1, Concat, [1]],
  #  [-1, 1, Conv, [320, 1, 1]], # 102
   [-1, 1, ELAN, [320, 256, [-1, -3, -5], 8]], #39
      
   [-1, 1, MP, []],
   [-1, 1, Conv, [320, 1, 1]],
   [-3, 1, Conv, [320, 1, 1]],
   [-1, 1, Conv, [320, 3, 2]],
   [[-1, -3, 23], 1, Concat, [1]],
   
  #  [-1, 1, Conv, [512, 1, 1]],
  #  [-2, 1, Conv, [512, 1, 1]],
  #  [-1, 1, Conv, [512, 3, 1]],
  #  [-1, 1, Conv, [512, 3, 1]],
  #  [-1, 1, Conv, [512, 3, 1]],
  #  [-1, 1, Conv, [512, 3, 1]],
  #  [-1, 1, Conv, [512, 3, 1]],
  #  [-1, 1, Conv, [512, 3, 1]],
  #  [[-1, -3, -5, -7, -8], 1, Concat, [1]],
  #  [-1, 1, Conv, [640, 1, 1]], # 117
   [-1, 1, ELAN, [640, 512, [-1, -3, -5], 8]], #45

   
   [33, 1, Conv, [320, 3, 1]],
   [39, 1, Conv, [640, 3, 1]],
   [45, 1, Conv, [1280, 3, 1]],

   [[46,47,48], 1, IDetect, [nc, anchors]],   # Detect(P3, P4, P5)
  ]
